…
        "outputId": "b5c1be53-1ab5-46d2-baa2-cd7fee93d316",
        "colab": {
          "base_uri": "https://localhost:8080/",
          "height": 646
        }
      },
      "cell_type": "code",
      "source": [
        "model.summary()"
      ],
      "execution_count": 0,
      "outputs": [
        {
          "output_type": "stream",
          "text": [
            "_________________________________________________________________\n",
            "Layer (type)                 Output Shape              Param #   \n",
            "=================================================================\n",
            "conv2d_45 (Conv2D)           (None, 32, 32, 32)        896       \n",
            "_________________________________________________________________\n",
            "conv2d_46 (Conv2D)           (None, 30, 30, 64)        18496     \n",
            "_________________________________________________________________\n",
            "max_pooling2d_34 (MaxPooling (None, 15, 15, 64)        0         \n",
            "_________________________________________________________________\n",
            "batch_normalization_12 (Batc (None, 15, 15, 64)        256       \n",
            "_________________________________________________________________\n",
            "dropout_45 (Dropout)         (None, 15, 15, 64)        0         \n",
            "_________________________________________________________________\n",
            "conv2d_47 (Conv2D)           (None, 13, 13, 64)        36928     \n",
            "_________________________________________________________________\n",
            "max_pooling2d_35 (MaxPooling (None, 6, 6, 64)          0         \n",
            "_________________________________________________________________\n",
            "dropout_46 (Dropout)         (None, 6, 6, 64)          0         \n",
            "_________________________________________________________________\n",
            "conv2d_48 (Conv2D)           (None, 4, 4, 32)          18464     \n",
            "_________________________________________________________________\n",
            "max_pooling2d_36 (MaxPooling (None, 2, 2, 32)          0         \n",
            "_________________________________________________________________\n",
            "dropout_47 (Dropout)         (None, 2, 2, 32)          0         \n",
            "_________________________________________________________________\n",
            "flatten_12 (Flatten)         (None, 128)               0         \n",
            "_________________________________________________________________\n",
            "dense_23 (Dense)             (None, 1024)              132096    \n",
            "_________________________________________________________________\n",
            "dropout_48 (Dropout)         (None, 1024)              0         \n",
            "_________________________________________________________________\n",
            "dense_24 (Dense)             (None, 10)                10250     \n",
            "=================================================================\n",
            "Total params: 217,386\n",
            "Trainable params: 217,258\n",
            "Non-trainable params: 128\n",
            "_________________________________________________________________\n"
          ],
          "name": "stdout"
        }
      ]
    },
    {
      "metadata": {
        "id": "3O_mcVEGSSRt",
…
              "0   32_64_256_32.h5  [[[126, 126, 127], [126, 126, 126], [126, 126,...   \n",
              "1  32_64_256_128.h5  [[[126, 125, 129], [124, 124, 129], [123, 125,...   \n",
              "2  32_64_256_256.h5  [[[127, 126, 126], [126, 126, 125], [127, 125,...   \n",
              "3   32_64_128_32.h5  [[[128, 125, 127], [129, 126, 126], [130, 126,...   \n",
              "4   32_64_128_64.h5  [[[124, 126, 128], [123, 126, 128], [124, 125,...   \n",
              "\n",
              "                                                   2        arch   l3   l4  \n",
              "0  [[[126, 126, 127], [126, 126, 126], [126, 126,...   [256, 32]  256   32  \n",
              "1  [[[126, 124, 130], [122, 123, 130], [121, 124,...  [256, 128]  256  128  \n",
              "2  [[[128, 124, 125], [126, 127, 124], [128, 125,...  [256, 256]  256  256  \n",
              "3  [[[132, 122, 128], [134, 125, 123], [138, 123,...   [128, 32]  128   32  \n",
              "4  [[[118, 124, 129], [114, 125, 130], [117, 122,...   [128, 64]  128   64  "
            ]
          },
          "metadata": {
            "tags": []
          },
          "execution_count": 225
        }
      ]
    },
    {
      "metadata": {
        "id": "V4xe3axOMbv_",
        "colab_type": "code",
        "colab": {}
      },
      "cell_type": "code",
      "source": [
        "df = df.sort_values(['l3', 'l4'], axis=0)\n",
        "df = df.reset_index(drop=True)\n"
…
